data.pth (torch, 8671 bytes, 6 tensors)

l1.weight f4 [8, 117]
0	0x3f072ab8	0.5279956
1	0x3f881ff1	1.0634748
2	0xbf7469e6	-0.9547409
3	0xbf2334a8	-0.6375222
4	0xbf1db5d9	-0.616056
5	0xbdd48668	-0.103771985
6	0xbeefcbb5	-0.46835104
7	0x3a375f69	0.0006995113
8	0xbbad3a45	-0.0052864873
9	0xbcdf3010	-0.027244598
10	0xbd6b5d45	-0.057461996
11	0x3e31b71a	0.17355004
12	0x3d11e704	0.035620704
13	0xbde45a53	-0.111500405
14	0x3f8296b0	1.0202236
15	0xbe44d115	-0.19220383
16	0xbd4249eb	-0.047433775
17	0xbdd7fd76	-0.10546391
18	0x3f4f49bd	0.8097189
19	0xbf077852	-0.5291797
20	0xbeb30c13	-0.3497015
21	0xbeb11a80	-0.3459053
22	0x3f5bd1d9	0.8586708
23	0xbe6f8fb5	-0.23394664
24	0x3d4e58a8	0.050377518
25	0x3eeb7d8e	0.45994228
26	0xbfadb183	-1.3569797
27	0xbf23a27d	-0.6391981
28	0xbc8a32fd	-0.016870016
29	0x3e8fe0ed	0.28101292
30	0x3eb846f9	0.35991648
31	0x3d3f463e	0.046697848
32	0xbea88168	-0.3291123
33	0x3f249299	0.6428619
34	0xbf2e56e1	-0.68101317
35	0x3f1ab302	0.60429394
36	0x3b3caea0	0.0028790608
37	0xbec692b0	-0.3878379
38	0xbe8a5b7c	-0.27022922
39	0x3e3a8cbf	0.18217753
40	0x3f058a48	0.52164125
41	0x3eb19014	0.34680235
42	0x3e559143	0.20856194
43	0x3f428f82	0.76000226
44	0x3ef2b82c	0.47406137
45	0x3f00148c	0.5003135
46	0x3d8d83ac	0.0690988
47	0x3e81de7f	0.25365064
48	0x3f8c6390	1.0967884
49	0x3f22dabe	0.63615024
50	0x3f136be5	0.5758651
51	0x3e740669	0.2383057
52	0x3efd3ba7	0.49459574
53	0x3e40ca1b	0.18827097
54	0x3e8e592b	0.27802405
55	0xbf8a9697	-1.0827206
56	0x3e2aa001	0.16662599
57	0x3f0cad19	0.54951626
58	0x3ec56fbf	0.38561818
59	0xbfa66638	-1.2999945
60	0x3e6b746c	0.2299363
61	0x3f6870af	0.9079694
62	0x3f40de55	0.7533925
63	0x3f3ccddc	0.73751616
64	0x3ed0717d	0.40711585
65	0x3f120ca5	0.57050544
66	0x3f2e21e5	0.6802047
67	0x3eca5098	0.39514613
68	0xbe8c23c3	-0.27371034
69	0xbf288a25	-0.6583579
70	0x3f171f4c	0.5903213
71	0xbc7191fb	-0.014744277
72	0x3ed91931	0.42402032
73	0xbdec67a0	-0.115432024
74	0x3f327df1	0.6972342
75	0x3f01dd88	0.50728655
76	0x3f0483fb	0.51763886
77	0xbeef947a	-0.46792966
78	0xbce78c40	-0.028265119
79	0xbe366223	-0.17810874
80	0xbe80b361	-0.25136855
81	0x3e5bff95	0.21484216
82	0x3e3d2e8d	0.18474789
83	0x3f13cdea	0.57736075
84	0xbf0dd8b7	-0.55408806
85	0xbf13ad37	-0.5768618
86	0x3de6fd2d	0.11278758
87	0xbf09c022	-0.53808796
88	0xbf9338c4	-1.1501698
89	0x3f71eab8	0.9449878
90	0x3f162092	0.5864345
91	0x3ee166e6	0.44023818
92	0x3f5a071c	0.851671
93	0x3e9011d2	0.28138596
94	0xbc01986e	-0.007909877
95	0x3f48bdb6	0.78414476
96	0xbefa5461	-0.488925
97	0x3d0d6fa7	0.034530308
98	0x3f1b53ce	0.6067475
99	0x3f2d09de	0.6759318
100	0x3eda546b	0.4264253
101	0x3e6591c9	0.22418894
102	0x3dd648c0	0.10463095
103	0x3d831874	0.064011484
104	0x3eb32ac0	0.34993553
105	0xbf0da362	-0.5532743
106	0x3e89ef5f	0.26940438
107	0x3f346961	0.70473295
108	0xbcbf4d42	-0.02335227
109	0x3f1a7530	0.60335064
110	0x3f0732a6	0.5281166
111	0xbe684e1f	-0.22686051
112	0x3efa83e5	0.48928753
113	0x3e884d50	0.26621485
114	0x3f04fee1	0.51951414
115	0x3f0afb81	0.54290015
116	0xbe669192	-0.22516468
117	0x3e3b3dcb	0.18285291
118	0xbf4de278	-0.8042369
119	0x3f487a79	0.7831188
120	0x3f16b89b	0.58875436
121	0x3fb909b3	1.4456085
122	0xbd681794	-0.05666311
123	0xbf1906ad	-0.5977581
124	0x3f3b532c	0.73173785
125	0x3f21b61a	0.6316849
126	0x3ea53635	0.3226792
127	0x3de623b8	0.112372816
128	0xbd97fd0c	-0.07421312
129	0x3dbd4697	0.092419796
130	0xbeb569f2	-0.35432392
131	0xbe9cb073	-0.3060337
132	0x3ebd19ad	0.36933652
133	0xbdb2a437	-0.08722728
134	0x3d1b1d32	0.03786964
135	0xbf88385a	-1.0642197
136	0x3f3eba3a	0.7450291
137	0x3f0cff02	0.5507661
138	0xbe8ab76b	-0.27093062
139	0xbe9585e8	-0.29203725
140	0x3bea3cca	0.00714836
141	0xbd9c1fcd	-0.07623253
142	0xbf063b9f	-0.52434725
143	0x3f894afc	1.0726008
144	0x3f42ffaf	0.7617139
145	0xbe009b6d	-0.1255929
146	0x3ed38e0a	0.41319305
147	0xbf08c1a5	-0.5342048
148	0xbd29dd27	-0.041470673
149	0xbe2fc20e	-0.1716387
150	0xbd7cf55c	-0.06175743
151	0x3ebf28aa	0.37335712
152	0xbf26ab24	-0.6510489
153	0xbeb95a81	-0.36201862
154	0x3d275fd9	0.04086289
155	0x3f207dbc	0.62691855
156	0xbe311540	-0.17293262
157	0x3f300b54	0.68767285
158	0x3e63231c	0.22181362
159	0xbece2e60	-0.40269756
160	0xbf48968a	-0.78354704
161	0xbeab70e1	-0.33484557
162	0x3d6778b6	0.056511603
163	0xbce2ace4	-0.027670331
164	0x3eda1dcc	0.42600858
165	0xbe6ee06b	-0.23327796
166	0x3f588fd7	0.8459448
167	0xbeb36317	-0.35036537
168	0x3f046e62	0.5173093
169	0x3c6f4796	0.01460447
170	0x3f038bf1	0.5138541
171	0x3efdc9ec	0.49568117
172	0x3f0238da	0.50868
173	0x3f02ffae	0.51171386
174	0x3ee10ebc	0.43956554
175	0xbc8b191b	-0.016979745
176	0xbf904f03	-1.1274112
177	0x3d176128	0.03695789
178	0xbeee4bf9	-0.46542338
179	0xbf7b10b8	-0.98072386
180	0xbeeabd15	-0.45847383
181	0x3e8cdcfa	0.27512342
182	0xbe682992	-0.22672108
183	0xbf0a29c6	-0.5396999
184	0x3eb5ecc3	0.35532197
185	0x3e933303	0.28749856
186	0x3f268585	0.65047485
187	0x3e4a8b72	0.19779757
188	0xbe9b382a	-0.30316287
189	0xbebc6b5e	-0.36800665
190	0xbd810b1e	-0.063009486
191	0xbeeea956	-0.46613568
192	0x3f2e8482	0.6817094
193	0x3f2b9173	0.6701881
194	0x3ee47a2a	0.44624454
195	0x3c39e558	0.011346184
196	0x3ed643dd	0.4184865
197	0x3eca5642	0.39518934
198	0xbe13c048	-0.14428818
199	0xbf843916	-1.0329921
200	0xbd8b2f61	-0.06796146
201	0x3f2e0deb	0.6798999
202	0x3ec5333c	0.3851565
203	0xbd902cea	-0.07039817
204	0xbf21757b	-0.63069886
205	0xbf556b03	-0.8336641
206	0xbea28e50	-0.317492
207	0xbe852fbd	-0.26012984
208	0x3d48ce80	0.04902506
209	0xbf4d889a	-0.8028656
210	0xbf0c05f7	-0.546966
211	0x3cd0e038	0.02549754
212	0xbf3db9b6	-0.741115
213	0x3dbe9e7a	0.09307571
214	0x3d34673f	0.044043776
215	0x3e1656f6	0.1468161
216	0xbe5e7e54	-0.21727878
217	0xbc3bcca4	-0.011462364
218	0x3d897082	0.06710912
219	0x3e8cfec7	0.2753813
220	0xbd379204	-0.044816986
221	0x3ec0612c	0.37574136
222	0xbdf96d9b	-0.12179109
223	0x3ecd68a0	0.40118885
224	0x3c7d4a32	0.015459584
225	0xbec81fa0	-0.39086628
226	0xbe4f46b1	-0.2024181
227	0xbd79cb28	-0.06098476
228	0x3ebff7b8	0.37493682
229	0x3f17f430	0.59356976
230	0x3e906340	0.28200722
231	0x3f2cf751	0.67564875
232	0x3ed7c18d	0.42139855
233	0x3e20b8cb	0.15695493
234	0xbe95cfee	-0.292602
235	0xbe2368e6	-0.15957984
236	0x3e825cc2	0.25461394
237	0xbe42e590	-0.19032884
238	0xbf28c1d5	-0.65920764
239	0x3e8581ba	0.26075536
240	0x3f24b97a	0.64345515
241	0xbf4c87bc	-0.79894614
242	0x3dded91e	0.108812556
243	0x3ec5692e	0.38556808
244	0xbedfd4ef	-0.43717143
245	0x3ec1df3f	0.37865636
246	0x3e7fcd0b	0.24980561
247	0x3f030f4f	0.51195234
248	0x3f05f906	0.52333105
249	0xbe920dd3	-0.28526172
250	0x3e79402e	0.24340889
251	0x3de682a2	0.11255385
252	0x3f32665c	0.6968744
253	0xbee64e47	-0.44981596
254	0xbe047c7c	-0.12938112
255	0x3ecb9471	0.3976169

l1.bias f4 [8]
0	0x3fad3d66	1.3534362
1	0x3f97078c	1.1799178
2	0x3f2cea30	0.6754484
3	0x3f8a67b8	1.0812902
4	0x3f88818b	1.0664533
5	0x3f7757ed	0.9661854
6	0x3f5b1633	0.8558075
7	0x3f9b4ced	1.2132851

l2.weight f4 [8, 8]
0	0x3f4ba61e	0.7955035
1	0x3ff55f29	1.9169666
2	0xbf1938af	-0.5985212
3	0x3f8b9f21	1.0907937
4	0xbfd6bb16	-1.6775844
5	0x3f9f57c5	1.244866
6	0xbf6d6bcc	-0.9274261
7	0x3f4b0ebf	0.79319376
8	0xbc149210	-0.009068027
9	0x3e9f7fd3	0.3115221
10	0x3d380ad8	0.044932216
11	0xbd231431	-0.039814178
12	0xbe7e4ca0	-0.24833918
13	0xbea95aad	-0.33076993
14	0xbd8cede7	-0.06881314
15	0xbe08dcf7	-0.13365541
16	0x3f8ae4eb	1.085111
17	0x3fd0df26	1.63181
18	0xbff9e5b5	-1.9523226
19	0xbe499c8c	-0.19688624
20	0x3e9357d7	0.28777954
21	0x3c162cbb	0.009165938
22	0x3d1069f5	0.0352573
23	0x3f5dd74b	0.86656636
24	0x3fc3c6c8	1.5295038
25	0xbfb108fc	-1.3830867
26	0xbe1b2456	-0.1515058
27	0x3fa845da	1.3146317
28	0x3f219e13	0.6313183
29	0x3f9293e1	1.1451379
30	0xbf72c506	-0.94831884
31	0xbd794e47	-0.060865667
32	0x3f1f09a5	0.6212409
33	0x3d03304e	0.03202849
34	0x3f43307b	0.7624585
35	0x3fb0ad7b	1.3802942
36	0x3f0cd74f	0.55016035
37	0x3d531398	0.051532358
38	0xbea40c50	-0.32040644
39	0xbf729a97	-0.94767135
40	0xc01a3999	-2.4097655
41	0x3f589b65	0.84612113
42	0x3f13ed26	0.57783735
43	0x3fe9f2f8	1.8277273
44	0x3f3a0574	0.7266457
45	0x3fe10bad	1.7581688
46	0x3f3678e7	0.7127823
47	0x3ed6a445	0.41922203
48	0x3f6f17b0	0.9339552
49	0xbfb566c9	-1.4171993
50	0x3ff9ffb0	1.9531155
51	0xbf480ca1	-0.7814427
52	0x3f7b4d15	0.9816449
53	0x3f09a8aa	0.53772986
54	0x40024a17	2.035772
55	0x4004852f	2.070629
56	0x3fc3c28c	1.5293746
57	0x3f40e124	0.7534354
58	0xbf20b680	-0.6277847
59	0x3ea760e9	0.32691124
60	0x3ff74ed8	1.9320936
61	0xbf7dd011	-0.9914561
62	0x3ea71945	0.32636467
63	0xbd62b15d	-0.055344928

l2.bias f4 [8]
0	0x3f846219	1.0342437
1	0xbe7acbf7	-0.24491869
2	0x3f02f5df	0.5115642
3	0xbe9e7f46	-0.30956477
4	0x3f05b222	0.52224934
5	0x3ea50457	0.32229874
6	0x3ee5771c	0.44817436
7	0x3f29554d	0.66145784

l3.weight f4 [19, 8]
0	0x3e3cae2a	0.18425813
1	0xbe10f4d5	-0.14155896
2	0xbed8ae76	-0.42320603
3	0xbf1769d9	-0.59145886
4	0x3e8bc33c	0.2729739
5	0xbf06a14a	-0.5258986
6	0xbe7a7e71	-0.24462296
7	0x3c42ba73	0.011885273
8	0xbf99eeea	-1.2026036
9	0x3d7851a3	0.06062473
10	0xc00955e7	-2.145868
11	0x3ea85652	0.32878357
12	0x3f57add4	0.84249616
13	0xbed3b608	-0.41349816
14	0xbd7ce768	-0.061744124
15	0xbc248653	-0.010041791
16	0x3eef26dc	0.46709335
17	0xbc12b673	-0.008954632
18	0xbf8627bf	-1.048088
19	0x3e73c0b9	0.23803987
20	0xbf14e0de	-0.5815562
21	0x3e86a855	0.26300302
22	0xbf02ce67	-0.51096195
23	0xc01f5c3f	-2.4900053
24	0xbf36c375	-0.71391994
25	0xbeaa5662	-0.3326903
26	0xc020a46f	-2.5100362
27	0x3dbe9b66	0.09306984
28	0x3e9e3f60	0.30907726
29	0x3f164e11	0.5871287
30	0xbdcb8d31	-0.099390395
31	0xbf911200	-1.1333618
32	0x3f44a0d8	0.7680793
33	0xbe17b009	-0.14813246
34	0x3ef5ddd8	0.48020816
35	0xbf10fa0f	-0.5663156
36	0xbf0ad6b9	-0.5423389
37	0x3e385abb	0.18003361
38	0xc032270f	-2.783634
39	0xbf866b14	-1.0501428
40	0x3f4ee037	0.80810875
41	0xbea5a3ab	-0.3235143
42	0x3f8ca8e3	1.098904
43	0xbfaa7bd6	-1.3319042
44	0xbe3a1583	-0.18172269
45	0xbffbd538	-1.9674444
46	0xbff37f66	-1.9023254
47	0x3e2e7f71	0.17040803
48	0xbe438a26	-0.19095668
49	0xbe969e42	-0.29417616
50	0xbee7ee20	-0.45298862
51	0xbf17a413	-0.5923473
52	0xbe30d09a	-0.17267075
53	0x3f2b1708	0.6683202
54	0xbf969c44	-1.1766438
55	0xbe18b1d2	-0.14911583
56	0xbf8b28c8	-1.087182
57	0xbeaaef06	-0.33385485
58	0xbfe356a4	-1.7760816
59	0xbed9421a	-0.42433244
60	0xc021fdb2	-2.5311093
61	0xbfee400e	-1.8613298
62	0x3f673e24	0.90329194
63	0xbe8de8f9	-0.27716807
64	0x3e80e8f3	0.25177726
65	0xbddd6033	-0.10809364
66	0xbfa58fa8	-1.2934465
67	0xc010a51c	-2.2600775
68	0xbf1e0a37	-0.61734337
69	0x3efdd430	0.4957595
70	0x3e59a799	0.2125534
71	0xbfa572b9	-1.2925636
72	0x3e214f55	0.15752919
73	0xbe134d19	-0.14384879
74	0xbf53c679	-0.8272472
75	0x3f4e9cf6	0.80708253
76	0xbe93178e	-0.28728908
77	0xbf45b84d	-0.77234346
78	0xbea8b784	-0.3295251
79	0xbf5d0a09	-0.8634344
80	0xbfec8cbd	-1.848045
81	0xbd983b15	-0.07433144
82	0xbeaa712f	-0.33289477
83	0xbf4569df	-0.7711467
84	0x3e98c343	0.29836473
85	0xbff0a6fc	-1.880096
86	0x3e9689a8	0.29401898
87	0x3ef56280	0.47926712
88	0xbea8d4c0	-0.32974815
89	0x3e84d6d6	0.25945157
90	0x3f130656	0.5743154
91	0xc034a9d3	-2.8228652
92	0xbff33725	-1.9001204
93	0xbf604658	-0.87607336
94	0x3c10c5ff	0.008836268
95	0x3eed4296	0.46339864
96	0x3ecf9573	0.40543708
97	0x3d20c5c7	0.039251115
98	0xbf92139a	-1.1412232
99	0xbea4041d	-0.32034388
100	0x3f5fc6b0	0.8741255
101	0x3efbc3fe	0.49172968
102	0xc006585b	-2.0991428
103	0xbfe3579e	-1.7761114
104	0xbfb91c89	-1.4461833
105	0xbe62922d	-0.22126074
106	0xc0298ce2	-2.6492238
107	0xbfed427a	-1.8535912
108	0xbfe3b9f7	-1.7791127
109	0x3f068787	0.5255055
110	0x3f3ffbee	0.7499379
111	0xbfceb2aa	-1.6148274
112	0xbed47a0d	-0.41499367
113	0x3d3f1159	0.046647403
114	0xbe943a3f	-0.28950688
115	0x3dbaa10f	0.09112751
116	0xbfb3bc8f	-1.4041919
117	0xbfc94a68	-1.5725832
118	0x3eaf6d03	0.34262857
119	0xbe69b710	-0.22823739
120	0x3f0c99f1	0.54922396
121	0x3da953ff	0.08267974
122	0x3ea05a96	0.31319112
123	0xbfd94d43	-1.6976703
124	0xc013c4ca	-2.308886
125	0x3e960608	0.29301476
126	0xbf3fced1	-0.7492495
127	0xbfa5407f	-1.2910308
128	0xbfe17407	-1.7613534
129	0x3b2030bc	0.002444311
130	0xbf975fe7	-1.1826142
131	0x3d142d2d	0.036175895
132	0xbf76b087	-0.9636311
133	0xbe72580a	-0.23666397
134	0x3f0e6fa7	0.5563912
135	0xbeaeb2a2	-0.3412066
136	0xbf8b83cb	-1.0899595
137	0x3ea75fa3	0.32690153
138	0x3e37ee53	0.17962007
139	0x3ed597a5	0.41717258
140	0x3f3bc446	0.73346364
141	0xbfe37a8f	-1.7771777
142	0xbf7900dd	-0.9726694
143	0x3e8873df	0.26650903
144	0x3e846c74	0.25863993
145	0xbe182f56	-0.14861807
146	0xbee75501	-0.4518204
147	0x3f5e59b3	0.8685562
148	0x3f327f52	0.69725525
149	0xbec8df8c	-0.39233053
150	0xc004276e	-2.0649066
151	0xbf0a9c4f	-0.5414476

l3.bias f4 [19]
0	0x3f13a8af	0.57679266
1	0xbe12ac66	-0.14323577
2	0xbe6e6771	-0.23281647
3	0x3d4c2439	0.049839232
4	0xbe8fa6e2	-0.2805701
5	0x3f30ac47	0.69012874
6	0xbe97b95d	-0.29633608
7	0xbd7d60fc	-0.06186007
8	0x3e469984	0.19394499
9	0xbec5a460	-0.3860197
10	0x3d5f0ae8	0.05445376
11	0x3f133dce	0.5751618
12	0x3e5b0ea2	0.213923
13	0xbc0112a5	-0.00787798
14	0xbf083a3a	-0.53213847
15	0x3ea2f822	0.31829935
16	0xbe9207eb	-0.28521666
17	0xbd6002b6	-0.054690085
18	0xbd9a072e	-0.07520901
